srcnn_full_image.pth (torch, 279778 bytes, 6 tensors)

conv1.weight f4 [64, 3, 9, 9]
00000000: 84ab 37bd 386f 56bd fa90 673d fdbb 2ebd
00000010: 43cb f93c 9396 623d 0226 6dbd 5a19 1d3d
00000020: f1fb 653d 802f 6d3c 7006 263c 73ab 23bd
00000030: b151 dcbc f62e 08ba 21ba 4b3d 94ed 0e3c
00000040: 5988 ee39 f373 1bbd 40df 52bd f1ee 533c
00000050: e13b 01bd fe56 403d bad2 98bc 683b 5ebd
00000060: 4de7 04bd 0a4e 973c 1182 62bd 307f 513a
00000070: 8647 2f3d ff95 5e3d 1fd4 46bd ae0b 063d
00000080: 9dd9 8dbc 80bc 1ebd 67b5 71bc 04fb 6ebd
00000090: b7c1 7dbb c280 efbc bdb3 6b3b 4500 423d
000000a0: 1753 7b3d ce5d c23c af88 9a3b decc 7d3d
000000b0: 8bee ca3c 2e79 843d 8a9d b9bc de0a 1f3d
000000c0: f652 2c3d 2208 443a da2f 2a3d 0537 f3bc
000000d0: b35a bdba 8cbb 053d ff6a 78bc f351 dabc
000000e0: a14c 233d cab8 463d 9169 5fbc 7088 cbbc
000000f0: b837 c4bc ac46 293d 6d31 babb 9881 433d
00000100: 503d 5739 2085 843d 212c d5bc e1f8 233d
00000110: 5d45 6fbc ac96 8f3b 320a 9bbc 99f7 5ebc
00000120: 909b 0cbd 2c4a 8d3b 8c15 12bb 7781 d23b
00000130: 3d4f f1bc 84a9 50bd 3466 c4bc 4a39 b23c
00000140: 7668 8b3c 05f9 dcbc b5fb 87bc a41d 103c
00000150: 4b50 803d e7a0 1b3d bf50 c5bc 567c fd3c
00000160: e6e9 2a3d 6d98 0fbc 62fb ae3c 98c9 36bd
00000170: 27f6 3d3d bc0f 5b3d 2290 1b3d e906 893d
00000180: c3ab 303d 4b79 5e3d 30e6 92bc a2fb 193c
00000190: 1074 61bd 0784 02bd 2c29 86bc ecfb f2bb
000001a0: 9852 5fba fae2 52bd 77e2 5a3c 22d7 cabc
000001b0: 97b5 f7bc ea71 a53c 01e8 abbb 7afd 67bd
000001c0: 5ef8 b4bc a427 6dbd e69a 0bbd 535c 35bd
000001d0: 41eb 02bd 13ec 7d3d a7b7 66bd 9bf1 923c
000001e0: e924 583d 9d77 793d 4e5f 0abc a801 5ebd
000001f0: b16c fcbc c110 743c 0dae 3cbd 6162 133c
00000200: 1343 4bba 48d1 f33c e833 1fbd de59 07bd
00000210: 848e f93c 2a2c c5ba c1af 18bd 96a6 393c
00000220: c637 06bd 6273 413d 62ec 973c 6d31 91bc
00000230: 872e 733d eeed f339 7c93 253b 23bf 2e3c
00000240: c4b2 0ebd e1a3 49bd ac61 733c 2a66 10bd
00000250: fe94 03bd 8a3e 10bc 1ee3 2cbd 37a8 c1bc
00000260: 57ef 25bd d46c 5d3d 8fe7 ffbc 346c 6b3d
00000270: 61e0 54bd 3e03 f1bc 6a84 04bd f546 5ebb
00000280: 8783 57bd be8e 9d3c 34fb 06bd 1ef5 32bd
00000290: d348 fdbc 7164 06bc 7420 d43c 13fd 073d
000002a0: a700 49bd 58ca e6bc 45b1 413d 4594 c6bc
000002b0: fbe6 4e3d 6db4 e73c da75 c7bc 15bb 80bb
000002c0: 0c6c 803d 254d ccbb a36b 423d a65e 61bd
000002d0: bedf 723d 36d4 fabc 4883 94bb 6ba4 b3bb
000002e0: 0160 64bd 6cb0 89bc 310f acbc 84b4 fa3c
000002f0: 3888 a3bb 935c 253c a5cb 4abd a417 35bd
00000300: a671 033d 2559 be3c 036f d23c 9be3 073d
00000310: a7c6 763d 6c88 8c3d 8c6f 3b3d 89cb 723d
00000320: 7d37 45bd cc79 323d bd43 773d 23c1 783d
00000330: 90e1 c03c 2571 5b3d 09d1 5a3d e6f8 1a3d
00000340: ab1d 2f3d 60d6 fe3a 497a 6abd 0695 923c
00000350: d1e8 e9bc 3b26 babc 6018 413d 9d5e 793d
00000360: 0072 5cbd a267 793c 8971 393d 025c 213b
00000370: 75df 213d 019c 56bc 14ee 5ebc 3a06 24bd
00000380: 8ed7 063c 4000 75bd 6b4c 2fbd b8db 843d
00000390: 3945 97bc da44 f73c 9660 bfbc 5e90 093d
000003a0: fc8d 91bc 53d0 3c3d 44a4 dfbc 403a 54bd
000003b0: 2f28 8abc 98f8 67bd 2272 f0bc dc38 10bd
000003c0: 4e7b 5fbc fe87 69bd d1e9 6abd 6fe4 86bc
000003d0: 8e18 beb9 3b63 ebbc 79d3 adbc b06f 763d
000003e0: 56ad 5d3d 8b17 4c3d 63c7 033d aff7 51bb
000003f0: a522 b0bc 4afb d73c c594 88bb b037 20bd
-0.044841304 -0.05235216 0.056534745 -0.04265975 0.03049243 0.05531938 -0.057897575 0.038354255
0.056148473 0.014476657 0.010133371 -0.03995843 -0.026894422 -0.0005194986 0.049738053 0.008723635
0.00045496484 -0.037952375 -0.05148244 0.012935386 -0.031551246 0.046957962 -0.01865517 -0.054255873
-0.032447148 0.01846983 -0.055299822 0.00079916697 0.04279282 0.054342266 -0.04854214 0.032725982
-0.01731568 -0.038753986 -0.014752722 -0.058344856 -0.00387202 -0.029236201 0.0035965287 0.04736354
0.061358538 0.02372637 0.004716001 0.061962955 0.02477195 0.06468426 -0.022658128 0.038828723
0.042071305 0.00074780185 0.04154954 -0.029689321 -0.0014446586 0.03264956 -0.015162229 -0.026650405
0.039868 0.048516072 -0.013636009 -0.024845332 -0.02395235 0.041327164 -0.0056821615 0.047731012
0.00020526838 0.06470704 -0.026022019 0.04003227 -0.01460394 0.004381975 -0.01892576 -0.013608837
-0.034328043 0.0043118205 -0.0022290675 0.006424125 -0.02945673 -0.050942913 -0.023974515 0.021755833
0.017017584 -0.02697421 -0.016599515 0.008796129 0.06265315 0.037995245 -0.024086354 0.030943077
0.04172697 -0.0087643685 0.021360103 -0.04462585 0.046377327 0.053481802 0.037979253 0.06690771
0.043132555 0.054314893 -0.017932028 0.009398373 -0.055042326 -0.031864192 -0.016377054 -0.0074152853
-0.00085190823 -0.051485993 0.0133596575 -0.024760786 -0.030237956 0.02019592 -0.005246163 -0.05663822
-0.022091087 -0.057899132 -0.03408327 -0.0442775 -0.031962637 0.061992716 -0.05632749 0.017937472
0.052769575 0.060905088 -0.008445574 -0.0542008 -0.030813547 0.014896573 -0.046064425 0.008995623
-0.000775383 0.029762879 -0.03886786 -0.03304469 0.030463465 -0.0015043069 -0.037276987 0.011331221
-0.032768033 0.04722918 0.018545333 -0.017723763 0.059370544 0.00046525843 0.002526491 0.010665688
-0.034838453 -0.049228553 0.01485483 -0.03525368 -0.032124512 -0.008803973 -0.042208783 -0.023639781
-0.040511455 0.054058865 -0.031238345 0.057476237 -0.051971797 -0.029420491 -0.032352842 -0.0033916805
-0.05261567 0.019233104 -0.03295441 -0.043690793 -0.030918514 -0.008202658 0.025894381 0.033200335
-0.049072888 -0.028172657 0.047288198 -0.024240622 0.05051325 0.028284276 -0.024348188 -0.003928552
0.06270608 -0.0062347823 0.04746593 -0.055021904 0.05929541 -0.030618768 -0.0045322515 -0.0054822466
-0.05575562 -0.016807757 -0.021003338 0.030603655 -0.004990604 0.010092872 -0.049510617 -0.044212
0.032090805 0.023235867 0.0256877 0.033176046 0.060248043 0.06861958 0.045760676 0.059276138
-0.04814862 0.043573186 0.060367335 0.060731065 0.023545057 0.0535747 0.053422008 0.037835024
0.042752903 0.0019442551 -0.057245526 0.017893326 -0.028553398 -0.022723308 0.047142386 0.060881246
-0.053819656 0.015222462 0.04527429 0.0024621491 0.039519746 -0.013098718 -0.013606567 -0.040045
0.008230103 -0.05981469 -0.042797487 0.064872205 -0.018465625 0.030184198 -0.023361485 0.033584945
-0.017767899 0.04609711 -0.027300008 -0.051813364 -0.016864864 -0.05663356 -0.029351298 -0.035210475
-0.013640238 -0.057014458 -0.05735189 -0.016466348 -0.0003625792 -0.02873384 -0.021219002 0.060165107
0.054120384 0.04982714 0.032172572 -0.00320385 -0.021500895 0.026364941 -0.0041681253 -0.039115608

conv1.bias f4 [64]
00000000: 3a1a 623d 0269 33bd c7fc 893d fe08 3c3c
00000010: 7e06 453c 0d4f 463d a891 0d3d 8162 423d
00000020: a27f 6abd 0f57 483d 0c94 773d a568 47bb
00000030: 1704 4abd bff4 07bb 3734 0d3d a894 2abc
00000040: ce7b 483d 3fdc 24bd a3c7 bd3c 3958 23bd
00000050: 7292 f3bc 6540 43bd 24be 3ebd d8f4 81bc
00000060: fbc4 2cbd 36a8 663d d48b 843c 009a 113d
00000070: 5fea 60bd df94 e53b 82df 273d f55d 333d
00000080: 73b7 52bd b18b f1bc fd3e 123d 28c3 a03c
00000090: 39b8 e33b 56e2 7f3d b7c9 afbc 92ed 56bc
000000a0: 72d5 42bd 024f 3e3d 13d3 263d b1c3 0c3d
000000b0: 2679 e8bc 1dd0 7dbb e93c 343c 7ce8 873a
000000c0: 09a9 c0bc 5c63 51bd 06b6 8a3c 0f04 2e3d
000000d0: 3a3c 823d 19e0 f93c 538a 2e3d 7612 fa3c
000000e0: 4e1d 503c 3ce4 02bd 9ef2 8b3d 572a bb3c
000000f0: c9b2 68bd bf96 efbc e7b8 a03c 843e b4bb
0.055200793 -0.043801315 0.067376666 0.011476753 0.012025474 0.048415232 0.034562737 0.047457222
-0.057250626 0.04891115 0.060443923 -0.0030427363 -0.049320307 -0.0020745245 0.034473624 -0.010411419
0.048946194 -0.040249106 0.023166483 -0.039879058 -0.029732917 -0.047668833 -0.04656805 -0.01586382
-0.042180043 0.056312762 0.016179956 0.035547256 -0.054911014 0.007006272 0.040984638 0.043790776
-0.051444482 -0.029485555 0.0357046 0.019624308 0.0069494513 0.06247171 -0.02145849 -0.013118165
-0.04756684 0.046462066 0.04072864 0.034366313 -0.02837808 -0.0038728782 0.01100085 0.0010368968
-0.023518102 -0.051120147 0.016932499 0.04248434 0.063591436 0.030502366 0.042612385 0.030526381
0.012702299 -0.031955943 0.06833385 0.022847338 -0.056811128 -0.029246686 0.019619418 -0.0055006165

conv2.weight f4 [32, 64, 5, 5]
00000000: 46fc 4f3c a0b2 1abb 6be8 06bc e418 553c
00000010: 7450 7dbc 2c8c d03a 6638 b93b 8a3c ca3c
00000020: cc97 eb3c f020 143c 5d93 843b 34f5 ab3c
00000030: 3622 a93c c5ae de3c 2fb2 ac3c ffda 733c
00000040: 26da 7d3c cc4b eabb b1ae a8bb 521c 243c
00000050: 4f20 a1bb 3608 8bbc b371 d6bb 968b aeb9
00000060: 94da db3b 3eb6 ccbc 9911 a3bc 252a 9dbb
00000070: 543c a23c b00c 023a df1d 1abc 270f 7c3c
00000080: f284 c43c a4dc 933b 5465 833c 0c66 8339
00000090: 12a5 f6bb e66a d63b dc49 a53c 6a85 eb3b
000000a0: 1686 83bb fc30 633c 1109 9e3c 0e0b 143c
000000b0: c1c6 9f3c e9fa d43c 2270 923c 7ed9 c13c
000000c0: 0d32 843c bb4e a1bc 7692 e4bb 50ed b2bb
000000d0: e39e 7dbc 385a 9fbc 1cbb b4bc d250 fe3b
000000e0: d178 183c f072 023c ce36 ccbb 50d1 bebb
000000f0: 3fc0 fcba 7fcf 893c c435 df3c 28a9 78bc
00000100: 7001 1bbc bf9f c7bc 35aa 873c efdc 95bb
00000110: d134 29bc 33b8 a2bc a6a4 b5bc 9df7 4a3c
00000120: dd71 7c3a 980f 343b d3ff 4bbc 3c48 713c
00000130: 792f 493c c0c8 51bc 405c 8e3c 80f5 ed3b
00000140: e4db 52bc fdf2 3ebc 92c6 7cbc ef71 d93b
00000150: 888e 973c e8a8 4dbc a224 91bc 082f 13bc
00000160: c942 e4ba e81e b0bc f5a7 75bc 400f d83b
00000170: ceb7 343c 6f76 c13b 23b1 e13a 3ab2 e6ba
00000180: 0c37 193b 4d2a 1c3c fee1 11bc 8a8a a93c
00000190: e1ea c13c c9d7 3d3d f643 db3c ba11 633c
000001a0: a416 90bc 3953 833b d439 b23c ae18 403c
000001b0: a326 b5bc 89ec 38ba 05f5 00bc 6e48 ce3c
000001c0: a1e9 15bd 02e6 f8bb 3b54 1ebd ba93 103c
000001d0: d0e4 e83b e36a e33c 02b9 023c bc17 35bc
000001e0: 5638 eb3c 5eb7 ef3c ab94 073d 16fa 0ebd
000001f0: 2628 993c da85 f53c 6ca1 8fbc f9f9 9e3c
00000200: fcf6 463c 07e9 febb 6207 e6ba 62cd 1b3c
00000210: 21d4 c53c 6e15 d5bb 47de 023d 377f f4bc
00000220: 7e06 3bbc a068 ef3c 99c8 37bb 2e48 fb3c
00000230: 67ef d73c 3669 943b f39b 59ba e399 dfbc
00000240: 85b2 0ebd 57f5 a13b 0b17 583b 6861 2cbc
00000250: 3599 10ba e616 863c a343 ba3c 122c 87bc
00000260: e097 c0bc f438 91bc 15ab 36bc 7b20 923c
00000270: c921 973c 807b b43b 4b48 e8bb 9e73 843b
00000280: 9ee6 b03c 9c12 a8ba fd57 afba f8b2 c1bb
00000290: aaa0 15bc c035 c13c ccda 003c c5c5 603c
000002a0: fd84 76bc 19d4 89bc b50a 7abc 1f8b f0bb
000002b0: 4500 383c cb34 9bbb 7f0e 10bc 0bf5 03bb
000002c0: e0b0 7cbb 6529 073b bc63 3539 64a0 9dbc
000002d0: 99e9 c7bb 0965 c93c 73d6 d2bc ef4c a63c
000002e0: bb1d 623c c966 5c3b 44a0 473c bd02 923c
000002f0: 8aaf da3b 5323 bcbc 9c29 783c 6fd8 873c
00000300: b29f e93b 19b0 95bc e7bf aebc 36a1 cc3b
00000310: 37ef 8bbb 0142 f43a 90b0 7cbc 163d a9bb
00000320: 36e2 b5bc c367 76bc 28a0 bfbc e9da 6dbc
00000330: a4c3 64bc c9ac 5e3c 837d 5c3c fdcf bd3c
00000340: b4b4 933c a94a bcbc 80c6 7abc 4ccb 953b
00000350: 9b15 9dbc ae10 afbc f234 5dbb 6dd5 5a3c
00000360: 9cd1 d7bc 94bd c6bc 2742 143c 86a9 85bc
00000370: 3835 deb9 a1eb af3c 38a8 be3c 6b7e ac3c
00000380: c16d b2bc eec3 24bc b6dd c6bc 55bd af3c
00000390: e59e b6bc 5710 3c3c 240d 83bc 1429 833a
000003a0: 9bca 3e3c 2eab b8bc d501 9b3c d315 22bc
000003b0: dce7 73bc 09fb 65bc 2ca7 923c cbc5 693b
000003c0: d3c0 8dbc df80 163b c50f 303b 0545 0a3c
000003d0: 4a7f 13bc fe13 a0bc 6d7d 6a3c c3ca 6abc
000003e0: 1cb0 e7bb 18b9 ba3a 5419 16bd 3d79 15bd
000003f0: 6b5f 55bc af43 783c 6bcb 05b9 ebf4 1dbc
0.012694424 -0.0023605004 -0.008234124 0.013006423 -0.015461076 0.0015910915 0.005652475 0.02468707
0.028758906 0.009041056 0.0040458874 0.020990945 0.020646196 0.027182946 0.021081058 0.014883756
0.015493905 -0.007150149 -0.005147778 0.010016518 -0.0049171816 -0.016971689 -0.0065443157 -0.00033291866
0.006709406 -0.024989244 -0.019905852 -0.004796284 0.019804157 0.0004960997 -0.009406536 0.015384472
0.023989175 0.0045123864 0.016039528 0.00025062298 -0.007527002 0.006543505 0.02017682 0.007187535
-0.004013787 0.013866659 0.019291433 0.009035839 0.019503953 0.02599855 0.017875735 0.023663279
0.016137147 -0.019690862 -0.0069754673 -0.0054604188 -0.015479776 -0.0194522 -0.022061877 0.0077610994
0.009306149 0.007961974 -0.006232119 -0.005823292 -0.0019283368 0.016822575 0.027247317 -0.015177049
-0.009460792 -0.024368165 0.016560653 -0.0045734565 -0.010327534 -0.019863224 -0.022173237 0.012388137
0.0009630004 0.0027475115 -0.01245113 0.014726695 0.012279385 -0.01280421 0.017377973 0.007261932
-0.012869809 -0.011654613 -0.015428202 0.0066358964 0.018500581 -0.012552477 -0.017717663 -0.008983381
-0.0017414923 -0.021499112 -0.014993657 0.006593615 0.011030151 0.005904011 0.0017218929 -0.0017600723
0.0023378758 0.00953157 -0.008903978 0.020695943 0.02367157 0.046348367 0.026765805 0.013859207
-0.01758892 0.0040077236 0.02175609 0.011724634 -0.02211315 -0.00070542895 -0.007870917 0.025181022
-0.03659976 -0.0075957784 -0.038654547 0.008824283 0.0071073547 0.027760928 0.00797868 -0.011053022
0.028713387 0.029262241 0.033100765 -0.03490647 0.018695902 0.029971052 -0.017533027 0.019406306
0.012143847 -0.007779244 -0.0017549808 0.009509416 0.024149003 -0.0065027988 0.03195026 -0.029845817
-0.011415122 0.029224694 -0.002804315 0.030674066 0.026359273 0.0045291437 -0.00083011313 -0.027295059
-0.03483822 0.004942577 0.003297272 -0.01052127 -0.00055159937 0.01636834 0.02273733 -0.016500507
-0.02350992 -0.017727353 -0.011149188 0.017837754 0.018448727 0.0055078864 -0.007088696 0.004042103
0.021594342 -0.0012822929 -0.0013377663 -0.0059112273 -0.009132544 0.0235852 0.007864665 0.013719027
-0.015046355 -0.016824769 -0.015261342 -0.0073408033 0.011230533 -0.004736518 -0.008792519 -0.002013507
-0.0038557574 0.0020624038 0.00017298659 -0.01924152 -0.006100845 0.02458431 -0.025737023 0.020300357
0.013801034 0.00336306 0.012184206 0.017823571 0.006673758 -0.022966063 0.015146639 0.016582696
0.007129633 -0.018272446 -0.02133174 0.006244804 -0.00427046 0.0018635393 -0.015422955 -0.0051647527
-0.022202592 -0.015039387 -0.023391798 -0.014517524 -0.01396266 0.013591 0.013457659 0.023170466
0.018030502 -0.02298482 -0.015306115 0.004571354 -0.019175341 -0.021370258 -0.0033753482 0.013356549
-0.026345067 -0.02426032 0.009048975 -0.016316187 -0.0004238279 0.021474661 0.023273572 0.021056375
-0.02178085 -0.010056479 -0.024275642 0.021452585 -0.022292564 0.011478505 -0.015997477 0.0010006749
0.011644985 -0.022542562 0.018921772 -0.009892899 -0.014886823 -0.014036902 0.01790198 0.0035670872
-0.01730386 0.0022964997 0.0026864868 0.008439307 -0.009002516 -0.019540783 0.01431213 -0.014330569
-0.0070705544 0.0014245836 -0.03664525 -0.036492575 -0.013023238 0.015152856 -0.00012759648 -0.0096409125

conv2.bias f4 [32]
00000000: b9ca 953c 6a50 f438 2f99 d0bb c30e daba
00000010: 3fab 5b3c ed70 3abc f838 f53b 690a 6cbc
00000020: 23b8 493c a3c8 ec3c 05a0 9c3c f969 b03c
00000030: d102 b63b ce06 873c fe8f b13c 1ca1 60bc
00000040: 1312 acbc a51d 57bc 7e60 22bc 9bd6 6c3c
00000050: 48bd 5f3b c0bd 2c3d 7a70 cc3c f744 08bc
00000060: c462 bbbc c965 993b b776 b93c 4197 5d3c
00000070: 20cb 21bc fa8f 45bb a73c ec3c 6b4b 2abc
0.018285142 0.00011649805 -0.006365917 -0.0016636479 0.0134075275 -0.011379463 0.007483598 -0.014406779
0.012311968 0.028904265 0.019119272 0.021534907 0.005554535 0.016482737 0.021675106 -0.0137102865
-0.021004712 -0.013129626 -0.009910701 0.014455463 0.003413992 0.042173147 0.024955977 -0.008317224
-0.022874244 0.004681323 0.022639615 0.013524831 -0.009875089 -0.0030145631 0.028837515 -0.010393958

conv3.weight f4 [3, 32, 5, 5]
00000000: 1fd4 69bc 1375 033d 76ba e0bc 25e8 dfbc
00000010: 321c 1f3d 45c9 e33c 7bda 843c 7cf6 6abc
00000020: c2cf ad3b 5e8c e33b 32f8 213d 1e95 a3bc
00000030: 0dad 04bd 53a7 133c a57e a9bc 34fa 0abd
00000040: ccce 4bbb c6ff 79bc ac7b d2bc 8b18 24bb
00000050: 773b 043d 9250 a4bc 52db 80bb 3898 9e3c
00000060: 47da c53b 8641 95bc c86b e23c 3c2f 943c
00000070: e158 843c 2c87 493c 14a2 063c dcd5 05bd
00000080: 8274 3dbc 949e 0ebd dad6 20bc 6437 df3c
00000090: 4807 00bd 1352 68bc 3858 0f3c 6134 e73c
000000a0: 6310 dc3c a69a 6abc 9ed5 ef3c 321c 843b
000000b0: 89d6 b5bc 96f0 f23c 7f90 b03c fd66 4ebc
000000c0: a740 e0bb 5c94 07bd 1f7f 8b3c ec32 fcbc
000000d0: 3476 1fbc c2bb 7cbc b478 d43c 0896 aabc
000000e0: 06d0 7bbc 582d f1bc 067a 3bbc 2107 91bc
000000f0: 45aa 323c 6801 9c3c 663d ab3c c3f8 bd3c
00000100: a1aa 40bc 609f 403c fedd 763c ef96 3fbc
00000110: 0d12 c5bc a2ca 0ebd 39ad e8bb 8ca9 6d3c
00000120: c32a c8bb c91b 0dbd ea2e fc3c e247 a23c
00000130: 9bb0 d0bc d512 3abc 8a46 aebc 235b c5bb
00000140: fcb1 c1bc 4cf7 7bbc 941f f73b 3527 9cbc
00000150: d5d4 42bc e5fb fdbc b66f 09bd ac4a e3bc
00000160: d08f e9bc f745 06bd 3381 803b 7354 0abc
00000170: 486c e2bc 7b4f c1b9 a575 c5bc dcd4 bd3c
00000180: 91ae 00ba 708d e9bc d343 eabb d366 80ba
00000190: e562 54bb c058 0ebc bb6a 40bc 16fb e03c
000001a0: a84a c43c 8fee 85bc f779 6b3b 40d8 99b6
000001b0: b918 06bd 50c6 f83c 8761 e03c 5150 11bc
000001c0: e1c7 90bc d549 e33c de2f dd3a 19ee 47bc
000001d0: 13a3 2abc ac70 08bd e4e4 043d 4e86 a63c
000001e0: 1b92 a23b 9af1 0dbc 2064 253b 9bf8 fbbc
000001f0: 9101 d3bc 1eec 82bc 6eb5 11bc 3b5e 243d
00000200: 7eeb 32bc 612f e8bc 6c63 ca3c 9c0c 143d
00000210: 9372 e83c 8165 123d 612a 123c a606 0dbd
00000220: 37dc 21bc 0d07 263d b0bc 843a e67a 94bc
00000230: 0025 36bc 5e09 0fbb ec03 103a 9caf 1fbc
00000240: 2e7b 2d3c 19ca b23c 28c0 ab3c d088 89bc
00000250: a4ce 48bc 775b f6bc 97d8 9dbc de92 37bc
00000260: 4f67 633b 2179 12bd 1b24 f1ba d0d8 d4bc
00000270: c65d 2ebd a71f efbc 4f5d 653c 19fb 1fbd
00000280: 42f8 1cbd 52d7 833c 1cb6 023d 7821 cbbc
00000290: b98f 8d3b 326f 84bc cb33 f1bc 2861 2b3d
000002a0: 62fe 8e3c 2bf4 94bc 7234 a4bc 4978 bdbc
000002b0: 42e0 b53c 6206 e4bb 0bf3 e13c b769 a9bc
000002c0: f1bb febc d758 873c c28a e33c da2e 50bc
000002d0: 31d2 14bd b3c2 d03c c411 d0bb 8092 9ebc
000002e0: 934c cdba 678a ef3c 324a 02bd 56e5 0dbc
000002f0: beb2 01bd 5d15 7ebc 2781 ffba 91d7 d73c
00000300: 2999 06bc 22ea 08bd b22f 9c3b 458c a23c
00000310: 3097 2a3b c7ae 963c 0777 e13c 6f84 49bc
00000320: 10ee c13b 5365 fdbc 22ec 803c a075 103d
00000330: 7c4d 0fbd 7868 a3bb 06b4 09bd 8c26 ff3c
00000340: 8d4b 743c 9e18 ad3c 94b3 3fbb d478 33bb
00000350: 9cc1 d13c 532b 063c 911b 1bbc becb e73b
00000360: a16d 9e3c 7490 f63c a97e 58ba bc9b 1cbc
00000370: 4a85 a2bc a57e e33b 26e9 9c3c 426c aa3c
00000380: bc4d 253c cfde c9bb 3320 16bd 26ba 713b
00000390: 8813 963c f6ca 883a 8daa 0dbc a770 903c
000003a0: 3a91 513c 7a96 f33b d45d 07bd fedf 873c
000003b0: 0a67 dfbb 243d adbc 07e1 b0bc cc4d 903c
000003c0: a089 3e3c 327c c73c 91f7 0fbc 9d3e 73bb
000003d0: d304 8abc 9522 e8bc f9af 02bd 323e 3b3a
000003e0: 11b5 843c ed7b d0bc 1f02 1cbd 82f3 953c
000003f0: eb7a 7a39 50e4 14bc f5b4 45bb 4124 bc3b
-0.014271765 0.032094073 -0.027432662 -0.027332375 0.03884525 0.027805934 0.01621746 -0.014340993
0.0053043077 0.0069442233 0.039543338 -0.019968566 -0.032391597 0.009012061 -0.020690272 -0.03393002
-0.0031098602 -0.015258735 -0.025693737 -0.0025039043 0.032283273 -0.02005795 -0.003932395 0.019359693
0.0060379836 -0.01821972 0.027639285 0.01808893 0.016155662 0.012300294 0.008217353 -0.032674655
-0.011563422 -0.0348192 -0.00981685 0.027248092 -0.031256944 -0.014179724 0.00874906 0.028223218
0.026863283 -0.014319098 0.029276665 0.0040316815 -0.022197025 0.029655736 0.021553276 -0.0125977965
-0.0068436447 -0.03310047 0.01702839 -0.030786 -0.009732772 -0.015425624 0.025936462 -0.020823494
-0.015369421 -0.029440567 -0.011442667 -0.017703595 0.010904853 0.01904364 0.0209033 0.023189908
-0.011759431 0.011756748 0.0150675755 -0.0116937 -0.024056459 -0.034861214 -0.007100728 0.014505755
-0.006108613 -0.034450326 0.03078409 0.019809667 -0.025474837 -0.011357029 -0.02127387 -0.0060228272
-0.02364444 -0.015378784 0.007541606 -0.019061664 -0.011891563 -0.031003902 -0.0335538 -0.027745567
-0.028510958 -0.032781567 0.0039216517 -0.008442986 -0.027639523 -0.00036871046 -0.024103949 0.023172788
-0.0004908825 -0.028509825 -0.0071491986 -0.0009796269 -0.0032407579 -0.008688152 -0.0117441965 0.027463477
0.02396138 -0.016349105 0.003593085 -4.58493e-06 -0.03273842 0.030368 0.027390255 -0.008869247
-0.017673435 0.027745167 0.0016875227 -0.012202763 -0.0104148565 -0.033310577 0.03244485 0.020327713
0.004961265 -0.008663559 0.002523668 -0.030758193 -0.025757583 -0.01598173 -0.008893354 0.040128928
-0.0109204035 -0.028342905 0.024705611 0.036144838 0.028374946 0.035741333 0.008921237 -0.03443017
-0.0098791635 0.040534068 0.0010127034 -0.018125009 -0.01111722 -0.0021825652 0.00054937485 -0.009746458
0.01058845 0.021824883 0.02096565 -0.01678887 -0.012256298 -0.03007291 -0.019268317 -0.011204449
0.0034699028 -0.03576005 -0.0018397601 -0.02598229 -0.042569898 -0.029189898 0.013999297 -0.039057825
-0.038322695 0.016093884 0.031911954 -0.024796233 0.0043201116 -0.016166303 -0.029443642 0.041840702
0.017455284 -0.018182835 -0.02004454 -0.023128645 0.022201661 -0.0069587687 0.027581712 -0.020680292
-0.031095477 0.016521854 0.027776126 -0.012706483 -0.036333267 0.025483465 -0.006349774 -0.019356966
-0.001566308 0.0292408 -0.03180904 -0.008660635 -0.031664602 -0.015508023 -0.0019493446 0.026347907
-0.008215227 -0.03342641 0.004766428 0.019842276 0.0026030056 0.018393887 0.027522577 -0.012299641
0.005918272 -0.030932104 0.015737597 0.035268426 -0.034986004 -0.004986819 -0.03361895 0.03114631
0.014910591 0.021129902 -0.0029251324 -0.0027385252 0.025605015 0.00818904 -0.009467022 0.0070738485
0.019339385 0.030098177 -0.000825862 -0.009558614 -0.019838948 0.0069425874 0.019154143 0.020803574
0.010089334 -0.006160594 -0.0366518 0.0036884635 0.01831986 0.0010436464 -0.0086466195 0.017631842
0.012790972 0.0074337097 -0.033048466 0.0165863 -0.006817703 -0.021147318 -0.021591676 0.017615221
0.011629492 0.024351213 -0.008787052 -0.0037116178 -0.016848003 -0.028336802 -0.0319061 0.0007142752
0.01619962 -0.025449717 -0.03808796 0.01830459 0.00023887648 -0.009087637 -0.0030167673 0.0057416265

conv3.bias f4 [3]
00000000: f2bb a9bb 4c9e adbc 7987 d33b
-0.0051798755 -0.021193646 0.0064553586
